===============================================================================================
Layer (type:depth-idx)                        Output Shape              Param #
===============================================================================================
PLA                                           [1, 2304]                 --
├─Sequential: 1-1                             [2, 2304]                 --
│    └─EncoderBlock: 2-1                      [2, 16, 42, 42]           --
│    │    └─Conv2d: 3-1                       [2, 16, 42, 42]           448
│    │    └─Sequential: 3-2                   [2, 16, 42, 42]           4,640
│    └─EncoderBlock: 2-2                      [2, 32, 21, 21]           --
│    │    └─Conv2d: 3-3                       [2, 32, 21, 21]           4,640
│    │    └─Sequential: 3-4                   [2, 32, 21, 21]           18,496
│    └─EncoderBlock: 2-3                      [2, 64, 11, 11]           --
│    │    └─Conv2d: 3-5                       [2, 64, 11, 11]           18,496
│    │    └─Sequential: 3-6                   [2, 64, 11, 11]           73,856
│    └─EncoderBlock: 2-4                      [2, 128, 6, 6]            --
│    │    └─Conv2d: 3-7                       [2, 128, 6, 6]            73,856
│    │    └─Sequential: 3-8                   [2, 128, 6, 6]            295,168
│    └─EncoderBlock: 2-5                      [2, 256, 3, 3]            --
│    │    └─Conv2d: 3-9                       [2, 256, 3, 3]            295,168
│    │    └─Sequential: 3-10                  [2, 256, 3, 3]            1,180,160
│    └─Flatten: 2-6                           [2, 2304]                 --
│    └─Identity: 2-7                          [2, 2304]                 --
├─LatentActHead: 1-2                          [1, 256]                  --
│    └─Linear: 2-8                            [1, 512]                  2,359,808
│    └─MLPBlock: 2-9                          [1, 512]                  --
│    │    └─Sequential: 3-11                  [1, 512]                  2,099,712
│    │    └─LayerNorm: 3-12                   [1, 512]                  1,024
│    └─Linear: 2-10                           [1, 512]                  2,621,952
│    └─MLPBlock: 2-11                         [1, 512]                  --
│    │    └─Sequential: 3-13                  [1, 512]                  2,099,712
│    │    └─LayerNorm: 3-14                   [1, 512]                  1,024
│    └─Linear: 2-12                           [1, 512]                  2,621,952
│    └─MLPBlock: 2-13                         [1, 512]                  --
│    │    └─Sequential: 3-15                  [1, 512]                  2,099,712
│    │    └─LayerNorm: 3-16                   [1, 512]                  1,024
│    └─Linear: 2-14                           [1, 256]                  131,328
├─LatentObsHead: 1-3                          [1, 2304]                 --
│    └─Linear: 2-15                           [1, 512]                  1,311,232
│    └─MLPBlock: 2-16                         [1, 512]                  --
│    │    └─Sequential: 3-17                  [1, 512]                  2,099,712
│    │    └─LayerNorm: 3-18                   [1, 512]                  1,024
│    └─Linear: 2-17                           [1, 512]                  393,728
│    └─MLPBlock: 2-18                         [1, 512]                  --
│    │    └─Sequential: 3-19                  [1, 512]                  2,099,712
│    │    └─LayerNorm: 3-20                   [1, 512]                  1,024
│    └─Linear: 2-19                           [1, 512]                  393,728
│    └─MLPBlock: 2-20                         [1, 512]                  --
│    │    └─Sequential: 3-21                  [1, 512]                  2,099,712
│    │    └─LayerNorm: 3-22                   [1, 512]                  1,024
│    └─Linear: 2-21                           [1, 2304]                 1,181,952
===============================================================================================
Total params: 25,585,024
Trainable params: 25,585,024
Non-trainable params: 0
Total mult-adds (Units.MEGABYTES): 137.45
===============================================================================================
Input size (MB): 0.17
Forward/backward pass size (MB): 2.93
Params size (MB): 102.34
Estimated Total Size (MB): 105.44
…
